…
adata":{"colab":{"base_uri":"https://localhost:8080/"},"id":"OeTzkCiUTOtR","executionInfo":{"status":"ok","timestamp":1670564006936,"user_tz":-540,"elapsed":7260,"user":{"displayName":"정재훈","userId":"01263813800591133648"}},"outputId":"f2f659c9-4be8-4e77-a99d-51be0c3eb353"},"outputs":[{"output_type":"stream","name":"stdout","text":["Model: \"sequential\"\n","_________________________________________________________________\n"," Layer (type)                Output Shape              Param #   \n","=================================================================\n"," conv2d (Conv2D)             (None, 26, 26, 32)        320       \n","                                                                 \n"," max_pooling2d (MaxPooling2D  (None, 13, 13, 32)       0         \n"," )                                                               \n","                                                                 \n"," conv2d_1 (Conv2D)           (None, 11, 11, 64)        18496     \n","                                                                 \n"," max_pooling2d_1 (MaxPooling  (None, 5, 5, 64)         0         \n"," 2D)                                                             \n","                                                                 \n"," conv2d_2 (Conv2D)           (None, 3, 3, 128)         73856     \n","                                                                 \n","=================================================================\n","Total params: 92,672\n","Trainable params: 92,672\n","Non-trainable params: 0\n","_________________________________________________________________\n"]}],"source":["from tensorflow.keras import layers\n","from tensorflow.keras import models\n","model
…
_uri":"https://localhost:8080/"},"id":"f69W1j78T8gw","executionInfo":{"status":"ok","timestamp":1670564014188,"user_tz":-540,"elapsed":519,"user":{"displayName":"정재훈","userId":"01263813800591133648"}},"outputId":"2c99c9c9-b7e3-42e7-9a97-ffb505d8a700"},"execution_count":null,"outputs":[{"output_type":"stream","name":"stdout","text":["Model: \"sequential\"\n","_________________________________________________________________\n"," Layer (type)                Output Shape              Param #   \n","=================================================================\n"," conv2d (Conv2D)             (None, 26, 26, 32)        320       \n","                                                                 \n"," max_pooling2d (MaxPooling2D  (None, 13, 13, 32)       0         \n"," )                                                               \n","                                                                 \n"," conv2d_1 (Conv2D)           (None, 11, 11, 64)        18496     \n","                                                                 \n"," max_pooling2d_1 (MaxPooling  (None, 5, 5, 64)         0         \n"," 2D)                                                             \n","                                                                 \n"," conv2d_2 (Conv2D)           (None, 3, 3, 128)         73856     \n","                                                                 \n"," flatten (Flatten)           (None, 1152)              0         \n","                                                                 \n"," dense (Dense)               (None, 64)                73792     \n","                                                                 \n"," dense_1 (Dense)             (None, 10)                650       \n","                                                                 \n","=================================================================\n","Total params: 167,114\n","Trainable params: 167,114\n","Non-trainable params: 0\n","_________________________________________________________________\n"]}]},{"cell_type":"code","source":["from tensorflow.keras.datasets import mnist\n","from tensorf
…
632,"user":{"displayName":"정재훈","userId":"01263813800591133648"}},"outputId":"d041cb9b-0cca-4a64-8338-a4801f985434"},"execution_count":null,"outputs":[{"output_type":"stream","name":"stdout","text":["Model: \"vgg16\"\n","_________________________________________________________________\n"," Layer (type)                Output Shape              Param #   \n","=================================================================\n"," input_1 (InputLayer)        [(None, 224, 224, 3)]     0         \n","                                                                 \n"," block1_conv1 (Conv2D)       (None, 224, 224, 64)      1792      \n","                                                                 \n"," block1_conv2 (Conv2D)       (None, 224, 224, 64)      36928     \n","                                                                 \n"," block1_pool (MaxPooling2D)  (None, 112, 112, 64)      0         \n","                                                                 \n"," block2_conv1 (Conv2D)       (None, 112, 112, 128)     73856     \n","                                                                 \n"," block2_conv2 (Conv2D)       (None, 112, 112, 128)     147584    \n","                                                                 \n"," block2_pool (MaxPooling2D)  (None, 56, 56, 128)       0         \n","                                                                 \n"," block3_conv1 (Conv2D)       (None, 56, 56, 256)       295168    \n","                                                                 \n"," block3_conv2 (Conv2D)       (None, 56, 56, 256)       590080    \n","                                                                 \n"," block3_conv3 (Conv2D)       (None, 56, 56, 256)       590080    \n","                                                                 \n"," block3_pool (MaxPooling2D)  (None, 28, 28, 256)       0         \n","                                                                 \n"," block4_conv1 (Conv2D)       (None, 28, 28, 512)       1180160   \n","                                                                 \n"," block4_conv2 (Conv2D)       (None, 28, 28, 512)       2359808   \n","                                                                 \n"," block4_conv3 (Conv2D)       (None, 28, 28, 512)       2359808   \n","                                                                 \n"," block4_pool (MaxPooling2D)  (None, 14, 14, 512)       0         \n","                                                                 \n"," block5_conv1 (Conv2D)       (None, 14, 14, 512)       2359808   \n","                                                                 \n"," block5_conv2 (Conv2D)       (None, 14, 14, 512)       2359808   \n","                                                                 \n"," block5_conv3 (Conv2D)       (None, 14, 14, 512)       2359808   \n","                                                                 \n"," block5_pool (MaxPooling2D)  (None, 7, 7, 512)         0         \n","                                                                 \n"," flatten (Flatten)           (None, 25088)             0         \n","                                                                 \n"," fc1 (Dense)                 (None, 4096)              102764544 \n","                                                                 \n"," fc2 (Dense)                 (None, 4096)              16781312  \n","                                                                 \n"," predictions (Dense)         (None, 1000)              4097000   \n","                                                                 \n","=================================================================\n","Total params: 138,357,544\n","Trainable params: 138,357,544\n","Non-trainable params: 0\n","_________________________________________________________________\n"]}]},{"cell_type":"markdown","source":["# vgg19"],"metadata":{"id":"d1wl0rwzzftQ"}},{"cell_t
…
:29,"user":{"displayName":"정재훈","userId":"01263813800591133648"}},"outputId":"b1c23943-4732-4fa3-a106-34072792fffd"},"execution_count":null,"outputs":[{"output_type":"stream","name":"stdout","text":["Model: \"vgg19\"\n","_________________________________________________________________\n"," Layer (type)                Output Shape              Param #   \n","=================================================================\n"," input_2 (InputLayer)        [(None, 224, 224, 3)]     0         \n","                                                                 \n"," block1_conv1 (Conv2D)       (None, 224, 224, 64)      1792      \n","                                                                 \n"," block1_conv2 (Conv2D)       (None, 224, 224, 64)      36928     \n","                                                                 \n"," block1_pool (MaxPooling2D)  (None, 112, 112, 64)      0         \n","                                                                 \n"," block2_conv1 (Conv2D)       (None, 112, 112, 128)     73856     \n","                                                                 \n"," block2_conv2 (Conv2D)       (None, 112, 112, 128)     147584    \n","                                                                 \n"," block2_pool (MaxPooling2D)  (None, 56, 56, 128)       0         \n","                                                                 \n"," block3_conv1 (Conv2D)       (None, 56, 56, 256)       295168    \n","                                                                 \n"," block3_conv2 (Conv2D)       (None, 56, 56, 256)       590080    \n","                                                                 \n"," block3_conv3 (Conv2D)       (None, 56, 56, 256)       590080    \n","                                                                 \n"," block3_conv4 (Conv2D)       (None, 56, 56, 256)       590080    \n","                                                                 \n"," block3_pool (MaxPooling2D)  (None, 28, 28, 256)       0         \n","                                                                 \n"," block4_conv1 (Conv2D)       (None, 28, 28, 512)       1180160   \n","                                                                 \n"," block4_conv2 (Conv2D)       (None, 28, 28, 512)       2359808   \n","                                                                 \n"," block4_conv3 (Conv2D)       (None, 28, 28, 512)       2359808   \n","                                                                 \n"," block4_conv4 (Conv2D)       (None, 28, 28, 512)       2359808   \n","                                                                 \n"," block4_pool (MaxPooling2D)  (None, 14, 14, 512)       0         \n","                                                                 \n"," block5_conv1 (Conv2D)       (None, 14, 14, 512)       2359808   \n","                                                                 \n"," block5_conv2 (Conv2D)       (None, 14, 14, 512)       2359808   \n","                                                                 \n"," block5_conv3 (Conv2D)       (None, 14, 14, 512)       2359808   \n","                                                                 \n"," block5_conv4 (Conv2D)       (None, 14, 14, 512)       2359808   \n","                                                                 \n"," block5_pool (MaxPooling2D)  (None, 7, 7, 512)         0         \n","                                                                 \n"," flatten (Flatten)           (None, 25088)             0         \n","                                                                 \n"," fc1 (Dense)                 (None, 4096)              102764544 \n","                                                                 \n"," fc2 (Dense)                 (None, 4096)              16781312  \n","                                                                 \n"," predictions (Dense)         (None, 1000)              4097000   \n","                                                                 \n","=================================================================\n","Total params: 143,667,240\n","Trainable params: 143,667,240\n","Non-trainable params: 0\n","_________________________________________________________________\n"]}]},{"cell_type":"markdown","source":["image_net이란?"],"metadata":{"id":"vhBnR85D0Y-y"}},{"c
…
